resultv3_gray.pth (torch, 250311 bytes, 10 tensors)

conv1.weight f4 [6, 1, 5, 5]
-0.080174126 -0.16602483 0.124774486 -0.07156934 -0.053210717 -0.14992349 0.059006754 -0.12482194
0.23003937 0.2342873 -0.12441005 -0.19462483 -0.05704963 -0.072805695 -0.029853823 -0.26529324
0.120150216 -0.24077162 0.19302303 0.30181605 -0.13603458 0.09100132 -0.08044304 0.1881876
0.22205557 -0.17312072 -0.24966124 -0.24809751 -0.107488714 -0.14163001 -0.3155631 -0.23819327
-0.3189525 -0.232077 -0.18844433 -0.33232763 -0.25023714 -0.31990418 -0.3905315 -0.12696663
-0.2562753 -0.15665324 -0.21809329 -0.29905707 -0.26967305 -0.16212222 -0.29150704 -0.12430955
-0.09806446 -0.38227597 -0.32116556 -0.38284853 -0.17788768 -0.37856498 -0.37756056 -0.14969663
-0.14727949 -0.3700417 -0.17695473 -0.33767182 -0.24422143 -0.32481048 -0.29649177 -0.2708328
-0.27224576 -0.032406162 -0.08044028 -0.27588606 -0.33394888 -0.11919209 -0.27862507 -0.22487123
-0.0751101 -0.02408357 -0.30154198 0.34322152 0.04196007 -0.18260552 -0.17639482 0.09719049
0.40129313 0.28316897 0.30581057 0.07631626 0.09065821 0.3654057 0.1377636 0.10028498
0.024196774 -0.035091482 0.060660418 0.032489184 -0.27005732 -0.17260788 -0.082537904 -0.15430011
-0.12582706 -0.19977297 -0.37005264 -0.2956556 -0.32247946 -0.2858368 -0.28747952 -0.18318795
-0.11266557 -0.050654568 -0.24228156 -0.09657801 -0.3038587 -0.11020679 -0.19649366 -0.0052848263
-0.20274033 -0.027826058 -0.30605543 -0.045533635 -0.21476825 -0.19181153 -0.088015586 -0.00869256
-0.25831103 -0.12567186 -0.10574403 -0.1852072 -0.28665248 0.06735536 0.08435121 0.23144193
-0.20173354 -0.23307493 -0.15920725 -0.118684694 0.1337894 0.013762746 0.12911323 0.0006700612
0.021392394 -0.19040157 -0.005698164 -0.0888151 -0.18035486 0.14881353 -0.09462477 0.23253343
-0.017146928 -0.16747305 0.10419126 0.061928485 0.20578137 -0.008171543
00000000: 5532 a4bd 6a02 2abe c489 ff3d f292 92bd
00000010: 7bf3 59bd 8b85 19be 11b1 713d a5a2 ffbd
00000020: 718f 6b3e 03e9 6f3e b2ca febd bb4b 47be
00000030: dfac 69bd 271b 95bd 0190 f4bc 84d4 87be
00000040: 5111 f63d d68c 76be d4a7 453e a287 9a3e
00000050: a64c 0bbe e65e ba3d 52bf a4bd 40b4 403e
00000060: 8962 633e 8f46 31be 32a7 7fbe 460d 7ebe
00000070: 0b23 dcbd 7507 11be 7d91 a1be f0e8 73be
00000080: be4d a3be 98a5 6dbe 8df7 40be d926 aabe
00000090: 151f 80be 7bca a3be bff3 c7be 8a03 02be
000000a0: 8436 83be b569 20be d953 5fbe 021e 99be
000000b0: 9612 8abe 5e03 26be 6940 95be 0196 febd
000000c0: 05d6 c8bd adb9 c3be d06f a4be b904 c4be
000000d0: 3028 36be 45d3 c1be 9e4f c1be 134a 19be
000000e0: 6fd0 16be 1b76 bdbe 9f33 35be 52e3 acbe
000000f0: 2f15 7abe 8f4d a6be c5cd 97be 99aa 8abe
00000100: cc63 8bbe 53bc 04bd e0bd a4bd f040 8dbe
00000110: 59fb aabe fc1a f4bd f2a7 8ebe a544 66be
00000120: 53d3 99bd e84a c5bc b663 9abe bbba af3e
00000130: 53de 2b3d f1fc 3abe d8a0 34be cf0b c73d
00000140: 4b76 cd3e 86fb 903e 3493 9c3e b34b 9c3d
00000150: 03ab b93d 7516 bb3e e711 0d3e 3662 cd3d
00000160: 5038 c63c 16bc 0fbd 0f77 783d 6113 053d
00000170: f444 8abe 1fc0 30be a209 a9bd d900 1ebe
00000180: cfd8 00be 4991 4cbe 8a77 bdbe 2c60 97be
00000190: 071c a5be 3359 92be 8430 93be 9f95 3bbe
000001a0: 35bd e6bd 2a7b 4fbd a818 78be b1ca c5bd
000001b0: 5e93 9bbe 19b4 e1bd a235 49be 562c adbb
000001c0: 299b 4fbe 79f3 e3bc 4cb3 9cbe 7a81 3abd
000001d0: 35ec 5bbe 3e6a 44be 8441 b4bd 3d6b 0ebc
000001e0: 5841 84be 20b0 00be 5390 d8bd f5a6 3dbe
000001f0: 1dc4 92be 9bf1 893d 54c0 ac3d 1dff 6c3e
00000200: 3d93 4ebe 32ab 6ebe 3a07 23be f610 f3bd
00000210: 1700 093e 247d 613c 4236 043e 0ca7 2f3a
00000220: 1a3f af3c a1f8 42be aab7 babb b1e4 b5bd
00000230: f2ae 38be 9362 183e a2ca c1bd 3e1d 6e3e
00000240: b777 8cbc 0e7e 2bbe 3a62 d53d b9a8 7d3d
00000250: 5ab8 523e efe1 05bc

conv1.bias f4 [6]
-0.0848846 0.086802475 -0.01356017 0.30267495 -0.16224323 -0.025833948
00000000: fad7 adbd 7fc5 b13d 7a2b 5ebc 36f8 9a3e
00000010: 1723 26be b7a1 d3bc

conv2.weight f4 [16, 6, 5, 5]
-0.03119483 -0.022864198 0.029728806 -0.059791908 0.072217695 -0.04384821 0.030145563 0.08506858
0.08273689 0.030331854 0.05593444 0.05132625 -0.06867327 0.06293858 -0.018203648 -0.047863558
-0.08327818 0.013572092 -0.063452885 0.00055213604 -0.07109473 -0.016298363 -0.044504184 0.0123913
0.06399166 -0.12153313 -0.14595115 -0.17793341 -0.038257033 -0.006116153 -0.044240978 -0.06301468
0.025897436 -0.09452183 -0.1248569 -0.02152831 0.06267884 0.060611326 0.07828355 0.030437574
0.12797977 -0.00019724411 0.120569594 -0.023704285 0.06013109 0.14679354 0.0471228 -0.0016974871
0.12913449 0.076283075 -0.04770661 -0.14273998 -0.063814595 -0.14477095 -0.04541134 -0.006218815
-0.057775505 -0.048512384 -0.024652427 -0.046251044 -0.011308081 0.10304487 -0.042793762 -0.03363785
-0.05911386 0.014306902 0.0824172 0.07247785 0.025273075 0.07146416 0.027212907 0.12400749
0.08973093 0.01966189 0.03699294 0.09562489 0.08887359 0.14175345 0.10793044 0.019867783
-0.022087377 0.056081448 0.11427747 0.041850396 0.00074869586 0.04389894 -0.042834908 -0.056483656
0.025157709 -0.025037162 -0.036567044 -0.001800594 0.021847289 0.040432997 -0.028734988 -0.012846857
-0.05598207 0.037753377 0.00044965182 -0.0114743775 0.033928983 0.005838122 0.016276227 -0.09802928
-0.07873146 0.053374078 -0.057657402 -0.07573126 0.0027032776 -0.010960822 0.00079922227 0.09278706
0.050146095 0.0015338247 -0.016005235 0.118662916 0.11099309 -0.014782387 0.07797942 0.00982453
0.061725963 0.040479604 0.08013128 0.10411287 -0.030532422 -0.023355287 -0.06468131 -0.03629067
0.05119261 0.027536297 -0.045990463 0.011709939 0.020815006 0.054250944 -0.04115341 0.04468886
0.07093529 -0.06584397 -0.0011188592 -0.017001789 0.0047489977 -0.0694038 -0.032469448 -0.037028078
-0.070598155 -0.066553146 0.0067525893 -0.005187048 -0.003749741 -0.07441993 0.0029749374 0.039828382
0.0605548 -0.041079406 -0.047527973 0.014220373 -0.04803904 0.10691727 -0.055534326 -0.059305135
0.06817371 0.061326582 0.05502333 -0.03447015 0.021695843 -0.009410174 0.066028684 -0.0052876724
0.0017474731 0.04000328 0.008830633 0.05093566 0.06376054 -0.0013453016 0.030445714 -0.053115036
-0.03922371 0.005887382 0.009712933 -0.053027146 0.058598764 0.0009157584 -0.058057617 -0.04496375
-0.077112615 -0.033560768 0.071646206 0.021562213 -0.09458728 -0.085310966 0.08795351 0.05983528
0.058109567 -0.0058116103 0.038210098 0.13190524 0.07441113 0.014353286 -0.030070215 0.05126609
0.071177065 0.032972448 -0.011858946 -0.03414002 -0.019752512 -0.015396055 -0.04563937 0.02606842
0.02916751 -0.07370023 0.06009599 -0.06552853 -0.06819008 -0.13241915 -0.040540136 -0.012333659
0.076953314 0.0052677095 0.057426523 0.038481932 0.07220341 0.046684876 0.04869957 0.0068093413
0.013963514 0.02209143 -0.015579146 -0.038874455 0.0015091163 -0.06896798 -0.013751799 0.049611315
-0.047601584 -0.06627211 -0.03142601 -0.056482363 0.007434776 0.09969059 0.0849976 0.03739818
-0.04902613 -0.031826917 -0.00059317454 0.029428203 0.06499873 -0.037230078 -0.080925055 -0.0157169
0.05184908 -0.0635842 -0.021624258 0.049924184 0.08947597 -0.08228522 -0.017385427 0.009604086
00000000: 4d8c ffbc b34d bbbc d389 f33c 5ce8 74bd
00000010: dfe6 933d 2e9a 33bd d4f3 f63c 7038 ae3d
00000020: f571 a93d 827a f83c 831b 653d 793b 523d
00000030: 92a4 8cbd f1e5 803d d11f 95bc 940c 44bd
00000040: c08d aabd 7b5d 5e3c 96f3 81bd 39bd 103a
00000050: 1d9a 91bd 2584 85bc 054a 36bd e104 4b3c
00000060: 0f0e 833d 5de6 f8bd 3874 15be 2d34 36be
00000070: 68b3 1cbd 036a c8bb 0736 35bd d70d 81bd
00000080: dc26 d43c a994 c1bd f9b4 ffbd 235c b0bc
00000090: c35d 803d 9543 783d 2053 a03d 3858 f93c
000000a0: 210d 033e 50d3 4eb9 31ed f63d 7d2f c2bc
000000b0: 054c 763d 0c51 163e d603 413d 377e deba
000000c0: d53b 043e 4d3a 9c3d 0268 43bd 6e2a 12be
000000d0: 3ab1 82bd d63e 14be 3e01 3abd 34c7 cbbb
000000e0: 02a6 6cbd ecb4 46bd e3f3 c9bc bc71 3dbd
000000f0: 8845 39bc 3009 d33d 8348 2fbd d8c7 09bd
00000100: 6021 72bd 7f67 6a3c 59ca a83d 446f 943d
00000110: 7b09 cf3c cd5b 923d 9aed de3c a4f7 fd3d
00000120: dac4 b73d f911 a13c e985 173d fbd6 c33d
00000130: 5b03 b63d d127 113e a20a dd3d c3c1 a23c
00000140: 96f0 b4bc a9b5 653d 4e0a ea3d 526b 2b3d
00000150: 2144 443a 60cf 333d a873 2fbd 685b 67bd
00000160: 8a17 ce3c bc1a cdbc 53c7 15bd e901 ecba
00000170: 16f9 b23c 129d 253d a365 ebbc a07b 52bc
00000180: 744d 65bd 49a3 1a3d 3fbf eb39 07ff 3bbc
00000190: 1ef9 0a3d b84d bf3b b955 853c 93c3 c8bd
000001a0: f63d a1bd c79e 5a3d 2b2a 6cbd fe18 9bbd
000001b0: 7929 313b 0595 33bc e682 513a 2407 be3d
000001c0: fe65 4d3d 9e0a c93a 691d 83bc 8b05 f33d
000001d0: 5850 e33d d331 72bc adb3 9f3d 11f7 203c
000001e0: 5dd4 7c3d f1cd 253d de1b a43d 2139 d53d
000001f0: 211f fabc 9653 bfbc a277 84bd 87a5 14bd
00000200: 58af 513d cd93 e13c 7f60 3cbd 0bdb 3f3c
00000210: 3b84 aa3c 3d36 5e3d 7a90 28bd ab0b 373d
00000220: 8546 913d 34d9 86bd afa6 92ba 5647 8bbc
00000230: 7b9d 9b3b 9423 8ebd affe 04bd c1aa 17bd
00000240: c495 90bd 044d 88bd d344 dd3b 1df8 a9bb
00000250: 37be 75bb 7a69 98bd 2bf7 423b 1623 233d
00000260: 4f08 783d e142 28bd b1ac 42bd 91fc 683c
00000270: 96c4 44bd 71f7 da3d f677 63bd f1e9 72bd
00000280: a89e 8b3d 9531 7b3d 2560 613d 9230 0dbd
00000290: 7bbb b13c 212d 1abc 0c3a 873d 3644 adbb
000002a0: 780b e53a 7bda 233d 5cae 103c e9a1 503d
000002b0: e394 823d d554 b0ba 4a69 f93c 278f 59bd
000002c0: 0aa9 20bd f1ea c03b fe22 1f3c fe32 59bd
000002d0: 4205 703d 820f 703a d3cd 6dbd e92b 38bd
000002e0: 38ed 9dbd 0477 09bd 3fbb 923d 3da3 b03c
000002f0: fab6 c1bd 84b7 aebd f820 b43d d715 753d
00000300: 4c04 6e3d 526f bebb 3182 1c3d 2b12 073e
00000310: dd64 983d 0b2a 6b3c d055 f6bc 64fc 513d
00000320: 48c5 913d 1e0e 073d 064c 42bc 68d6 0bbd
00000330: 05d0 a1bc bc3f 7cbc 59f0 3abd 708d d53c
00000340: b4f0 ee3c 25f0 96bd 3627 763d d233 86bd
00000350: 3ea7 8bbd e398 07be 6a0d 26bd 1e13 4abc
00000360: b399 9d3d c09c ac3b 1338 6b3d 3b9f 1d3d
00000370: 62df 933d a438 3f3d 3379 473d e520 df3b
00000380: 39c7 643c 16f9 b43c ad3f 7fbc d23a 1fbd
00000390: 8acd c53a 163f 8dbd 3a4f 61bc 3c35 4b3d
000003a0: e1f9 42bd acb9 87bd 8fb8 00bd 0d5a 67bd
000003b0: 6c9f f33b 942a cc3d 3913 ae3d d62e 193d
000003c0: a0cf 48bd f15c 02bd 457f 1bba 6a13 f13c
000003d0: 0e1e 853d 917e 18bd 09bc a5bd bac0 80bc
000003e0: b35f 543d 6f38 82bd 5b25 b1bc 4d7d 4c3d
000003f0: 2d3f b73d 2785 a8bd e26b 8ebc 755a 1d3c

conv2.bias f4 [16]
0.0014555859 0.044863947 -0.031006517 0.024592826 -0.03892161 0.12113547 0.057384264 0.05540592
-0.086660385 0.01154067 -0.06237115 0.11021245 -0.0044804965 0.0052356157 0.11418516 -0.075233616
00000000: 5cc9 be3a 42c3 373d 6101 febc e576 c93c
00000010: 446c 1fbd e015 f83d c30b 6b3d 51f1 623d
00000020: 007b b1bd 1415 3d3c e478 7fbd 11b7 e13d
00000030: 21d1 92bb 878f ab3b e9d9 e93d 1514 9abd

fc.weight f4 [120, 400]
-0.0016861372 0.034367684 -0.026467634 -0.014333367 -0.031152392 0.028684031 -0.022276754 0.032550838
-0.010142934 0.024022195 -0.03466151 0.006025534 -0.042667728 -0.017040431 -0.04839618 0.039979886
0.035402942 -0.01864599 -0.031183839 0.0010701232 -0.024432534 0.0083104 -0.021885945 0.028022762
-0.01527527 0.03440321 0.049465943 -0.007874936 0.021357182 -0.008424662 0.022460375 -0.009429991
-0.007236026 0.03410167 -0.0048283823 0.008522015 -0.044243373 0.037972037 -0.008018523 -0.0030214712
0.015387896 -0.039960094 0.0361675 -0.004801728 -0.023423249 -0.0032061413 -0.036767133 -0.0110903755
0.0045877807 -0.020350069 -0.024440074 -0.04167366 -0.005553417 0.014106128 -0.04743996 -0.011454921
0.0073743053 -0.0050334334 0.027964931 0.016648266 -0.01977889 -0.037606567 -0.013360787 0.036295127
-0.009636711 -0.044001855 -0.006871961 0.043200713 -0.023817582 0.036098797 -0.0016015358 0.019380365
0.010247052 -0.0046210587 -0.022493083 -0.006618969 0.031426657 -0.021494556 0.020656269 -0.026948167
-0.014736462 -0.03275286 0.03851332 -0.0056603327 0.020079289 -0.02012282 0.02532595 0.035550904
-0.03573961 -0.01464802 0.02883948 0.04379173 0.015092168 0.0121368095 -0.040147614 -0.009425499
0.03666277 -0.007255584 -0.039712466 0.0010995157 -0.022720797 -0.01010133 0.048727024 -0.046807308
-0.022364462 -0.04005901 0.0012738816 0.029080335 0.048999432 -0.027565653 0.018711839 0.032394055
-0.04903729 -0.008541416 0.037479278 -0.012499016 0.041420307 0.017369557 -0.0014855191 0.04599795
0.0005000606 0.03564113 0.04012375 0.006420158 -0.02168339 -0.04966907 -0.029495705 0.042080496
-0.024902685 0.020347062 0.019158173 -0.047787983 0.035795216 -0.0074105933 -0.025207657 -0.02112407
0.03612678 0.010935735 0.00781532 0.03845663 -0.026817977 0.043595914 0.014724109 -0.011317737
0.008449741 -0.013261698 0.023987029 -0.043831438 -0.016290743 -0.028261287 -0.041491717 0.043437008
0.008963883 -0.030690355 0.039771188 -0.040491026 -0.030638242 0.019485485 -0.0139589235 -0.04841562
0.02999669 0.036820088 -0.019057645 -0.015113909 -0.011432342 0.015024368 0.009188302 -0.023471117
0.03499723 0.045290377 0.02392264 0.016116586 -0.032111593 0.016711835 0.013275478 -0.04700258
0.020805743 0.0015759654 0.039897565 -0.03613638 -0.003750544 0.024891738 -0.02041772 -0.024347067
-0.017789524 -0.03220867 0.041669097 0.038286064 -0.044484712 -0.028995449 0.012681391 -0.031623885
-0.0010726936 0.015127819 0.019877229 -0.038809795 0.036214743 -0.0028354153 0.009655077 -0.039115362
0.025108572 -0.03215365 0.016540524 -0.02423863 -0.036577247 0.029296208 0.0029646978 -0.04265591
0.0076543503 -0.019383067 0.042103115 -0.027438147 0.03013755 -0.04130147 -0.0384624 0.038892146
-0.021575172 -0.010167412 -0.048760165 -0.030098815 -0.034638267 0.0010002926 -0.04245105 0.015116025
-0.04543492 0.02270979 -0.017459422 -0.0037837327 -0.008891374 -0.01297782 0.007322043 -0.0057034194
0.042149525 0.021848578 0.0026420578 0.000821691 0.0036721341 -0.021771533 -0.02189213 0.014145236
0.018381614 -0.009004306 0.0036400855 0.012233071 0.010779791 0.045057748 0.015837517 -0.045845505
0.042123545 -0.04829045 0.00047109276 -0.02657271 -0.035720326 -0.004717421 -0.026704675 0.016278464
00000000: 6001 ddba 21c5 0c3d a7d2 d8bc 80d6 6abc
00000010: 4d33 ffbc c6fa ea3c bd7d b6bc 0754 053d
00000020: 8c2e 26bc 32ca c43c 3af9 0dbd d871 c53b
00000030: 5bc4 2ebd 6098 8bbc 133b 46bd f3c1 233d
00000040: ad02 113d 7abf 98bc 4075 ffbc 6043 8c3a
00000050: bd26 c8bc 5828 083c 274a b3bc fe8f e53c
00000060: 2045 7abc 61ea 0c3d cd9c 4a3d e005 01bc
00000070: 42f5 ae3c 9807 0abc d2fe b73c 4080 1abc
00000080: 301c edbb 31ae 0b3d 6837 9ebb ec9f 0b3c
00000090: 8a38 35bd 9188 1b3d 2060 03bc e003 46bb
000000a0: 841d 7c3c 32ad 23bd 5f24 143d d057 9dbb
000000b0: 1de2 bfbc 201e 52bb 2299 16bd 68b4 35bc
000000c0: 1855 963b 30b5 a6bc 8d36 c8bc 00b2 2abd
000000d0: 70f9 b5bb 641d 673c 6750 42bd 6cad 3bbc
000000e0: 28a4 f13b 80ef a4bb b616 e53c f261 883c
000000f0: 5707 a2bc 5809 1abd 34e7 5abc 33aa 143d
00000100: 4ce3 1dbc 4a3b 34bd 302e e1bb 3bf3 303d
00000110: 171d c3bc 55dc 133d a0ea d1ba 92c3 9e3c
00000120: 40e3 273c 406c 97bb 6a43 b8bc f0e3 d8bb
00000130: 3db9 003d 5a15 b0bc 5637 a93c 67c2 dcbc
00000140: 3471 71bc dd27 06bd 25c0 1d3d 507a b9bb
00000150: 527d a43c 9dd8 a4bc 5e78 cf3c d39d 113d
00000160: b363 12bd 40fe 6fbc c640 ec3c f55e 333d
00000170: 2445 773c 78d9 463c d371 24bd 686d 1abc
00000180: b32b 163d 40c0 edbb 8aa9 22bd a01d 903a
00000190: f720 babc 0c80 25bc fd95 473d 05b9 3fbd
000001a0: ad35 b7bc eb14 24bd 60f8 a63a e239 ee3c
000001b0: a1b3 483d 5dd1 e1bc 9249 993c a1af 043d
000001c0: 53db 48bd 4cf1 0bbc df83 193d acc8 4cbc
000001d0: 57a8 293d 9a4a 8e3c c0b5 c2ba 5968 3c3d
000001e0: 8016 033a 6ffc 113d cd58 243d 3060 d23b
000001f0: 5da1 b1bc cb71 4bbd faa0 f1bc 995c 2c3d
00000200: b700 ccbc e2ae a63c 9af1 9c3c 55bd 43bd
00000210: 019e 123d 90d4 f2bb 4a80 cebc 630c adbc
00000220: adf9 133d cc2b 333c d40b 003c b384 1d3d
00000230: 60b1 dbbc a191 323d 643d 713c 086e 39bc
00000240: c870 0a3c 9847 59bc 7280 c43c 9888 33bd
00000250: 2a74 85bc 3784 e7bc 38f3 29bd 01eb 313d
00000260: 40dd 123c 576a fbbc 1de7 223d ebd9 25bd
00000270: 0dfd fabc 06a0 9f3c f8b3 64bc 754f 46bd
00000280: 9ebb f53c a9d0 163d c71e 9cbc 54a0 77bc
00000290: b84e 3bbc c428 763c 888a 163c 8046 c0bc
000002a0: 4159 0f3d 6782 393d 6af9 c33c ee06 843c
000002b0: 7287 03bd 42e7 883c 6481 593c c785 40bd
000002c0: ce70 aa3c a090 ce3a a16b 233d be03 14bd
000002d0: b0cb 75bb c2e9 cb3c 1043 a7bc 8073 c7bc
000002e0: 56bb 91bc 3ded 03bd 37ad 2a3d d9d1 1c3d
000002f0: 9a35 36bd dd87 edbc 9cc5 4f3c 0c88 01bd
00000300: a099 8cba acda 773c 92d5 a23c 05f7 1ebd
00000310: e955 143d 60d2 39bb 5430 1e3c 6e37 20bd
00000320: 7eb0 cd3c 8cb3 03bd fe7f 873c 1790 c6bc
00000330: 06d2 15bd 9afe ef3c 604b 423b f7b7 2ebd
00000340: 58d1 fa3b 3dc9 9ebc 5174 2c3d f7c5 e0bc
00000350: 06e3 f63c bb2b 29bd c08a 1dbd 5f4d 1f3d
00000360: 6abe b0bc 3895 26bc bdb8 47bd ca91 f6bc
00000370: dbe0 0dbd 401c 833a 27e1 2dbd 34a9 773c
00000380: f719 3abd e209 ba3c 1007 8fbc 80f8 77bb
00000390: 20ad 11bc eca0 54bc c0ed ef3b c0e3 babb
000003a0: fba4 2c3d cafb b23c 6026 2d3b c066 573a
000003b0: 30a8 703b 375a b2bc 2057 b3bc 6cc1 673c
000003c0: 0a95 963c cc86 13bc 808e 6e3b 386d 483c
000003d0: b89d 303c 798e 383d aebd 813c 7fc8 3bbd
000003e0: bd89 2c3d 35cc 45bd 00fd f639 03af d9bc
000003f0: 7a4f 12bd 9894 9abb c3c3 dabc 6a5a 853c

fc.bias f4 [120]
-0.043351498 0.050819643 0.040034916 -0.033069875 0.03613974 -0.041649442 0.026539259 0.024618406
0.040082037 0.026130153 0.0031375212 -0.021806717 -0.04960388 -0.0139851775 0.006355576 0.015007883
0.01299814 -0.028650183 -0.014234056 -0.009839629 -0.035306856 0.017563257 0.010566722 0.018096844
-0.003654891 0.04424571 -0.0058806036 0.02695275 0.048738707 0.045917887 -0.003932084 -0.009781192
0.025168397 -0.026296886 0.014210263 0.03706048 0.034764525 0.037477348 0.02673365 0.05498488
-0.049489472 0.014455516 0.003280441 0.043525252 -0.02360477 -0.04169646 -0.02712984 -0.04613885
-0.011314238 -0.039521333 0.037075635 -0.040678434 0.017440615 -0.02837302 0.03557791 -0.04031594
-0.03576673 0.046534482 0.035078228 -0.03976787 -4.304647e-05 0.024148202 -0.015424352 -0.011556685
-0.044002824 -0.0036139772 0.0431284 0.0024588548 -0.024731359 -0.0028065147 -0.016998999 -0.0028673694
-0.048298858 0.038243413 0.014670029 0.026829485 -0.010965706 0.024593636 0.033505082 -0.01847453
-0.020305477 -0.036454175 -0.0063411635 -0.004147733 -0.008073737 0.0255006 -0.019007564 0.0030899984
-0.014330864 -0.039459784 -0.03318722 0.00030327073 0.011261408 -0.04797885 -0.0004371191 0.037533555
-0.020312918 0.03459775 -0.03261924 -0.037149798 -0.047006246 -0.021616638 0.025695713 0.040737864
-0.0009504748 -0.035277408 0.042819533 0.046218354 0.046116106 0.019249672 0.03847303 0.047886346
-0.025610564 -0.021845175 0.039603736 -0.018172307 0.04082198 0.0487598 0.05737917 0.04538451
00000000: 5791 31bd 4228 503d a7fb 233d 4774 07bd
00000010: 4407 143d 9b98 2abd dc68 d93c 8aac c93c
00000020: 102d 243d e70e d63c df9e 4d3b 00a4 b2bc
00000030: 702d 4bbd 1622 65bc 7042 d03b a0e3 753c
00000040: 27f6 543c cab3 eabc f535 69bc 6536 21bc
00000050: ec9d 10bd d2e0 8f3c 0b20 2d3c d53f 943c
00000060: e586 6fbb fd3a 353d 14b2 c0bb 03cc dc3c
00000070: 3da2 473d 6514 3c3d b6d8 80bb 4b41 20bc
00000080: f42d ce3c 916c d7bc 2ad2 683c bbcc 173d
00000090: 3f65 0e3d d981 193d 8700 db3c d337 613d
000000a0: 79b5 4abd d4d6 6c3c abfc 563b 8947 323d
000000b0: ca5e c1bc e8c9 2abd 663f debc 17fc 3cbd
000000c0: 5b5f 39bc 1fe1 21bd 9fdc 173d 6e9e 26bd
000000d0: 9fdf 8e3c 896e e8bc 24ba 113d 5422 25bd
000000e0: 2280 12bd f19a 3e3d 30ae 0f3d a2e3 22bd
000000f0: cc8c 34b8 73d2 c53c 6cb6 7cbc 4058 3dbc
00000100: 4e3c 34bd 7ad8 6cbb 68a7 303d bd24 213b
00000110: 6b99 cabc 81ed 37bb 7c41 8bbc 7aea 3bbb
00000120: 06d5 45bd 20a5 1c3d 905a 703c 82c9 db3c
00000130: 81a9 33bc 9878 c93c a03c 093d e657 97bc
00000140: ac57 a6bc f950 15bd 89c9 cfbb b5e9 87bb
00000150: b547 04bc a2e6 d03c c0b5 9bbc 9281 4a3b
00000160: 00cc 6abc 95a0 21bd 53ef 07bd 4f00 9f39
00000170: c581 383c 7885 44bd 222d e5b9 c9bc 193d
00000180: 4767 a6bc 5fb6 0d3d c19b 05bd 632a 18bd
00000190: 9f89 40bd 6015 b1bc d17f d23c bfdc 263d
000001a0: 4929 79ba 0b7f 10bd 8963 2f3d 754f 3d3d
000001b0: 3ee4 3c3d 7db1 9d3c e595 1d3d 7924 443d
000001c0: 3fcd d1bc a7f4 b2bc 8737 223d 17de 94bc
000001d0: f334 273d 5bb8 473d 6c06 6b3d 1ce5 393d

fc1.weight f4 [84, 120]
0.08184388 -0.049806956 -0.05108865 0.058764167 0.068960704 -0.02267285 0.07424849 -0.09874801
0.021784097 -0.039792612 -0.06985886 -0.052469213 -0.082059614 0.065828346 -0.015236378 0.0030005525
0.043636423 0.06019123 -0.036412746 0.027718393 0.071399145 -0.06921128 -0.06148724 0.057118032
-0.08291581 0.034312796 -0.020625489 -0.035362415 0.050778475 -0.09705233 0.03652421 -0.0027757064
0.07137279 -0.054581996 0.05203923 0.06299248 0.054256864 0.07462327 0.0015906381 0.0055468087
0.03587513 -0.050389152 -0.0050994805 -0.05090738 0.076768614 -0.08104192 0.05109282 -0.016704313
-0.07844061 0.06375425 -0.016477188 0.006209224 0.05736448 -0.045601256 0.03263612 -0.00941256
-0.08852953 -0.047077633 -0.07730177 -0.07069466 -0.012793228 -0.08311987 0.06994399 0.06669058
0.09040419 -0.042914428 0.09630279 0.010357878 0.018204562 -0.05889252 0.072742805 -0.08717817
0.07811677 0.043676678 -0.0067390157 -0.012078873 -0.04107416 -0.07683808 -0.037474774 -0.051995084
0.05420387 0.080197155 0.04304905 -0.0050083273 -0.059848398 -0.08210226 -0.070218205 0.05092688
0.05228051 0.035407003 -0.04605345 0.04044471 0.10405627 -0.07768583 0.099249184 -0.07252636
0.0803717 -0.034278292 0.017082442 -0.007135719 0.06656562 0.017039562 -0.009442467 0.044862773
-0.009233468 -0.0026111521 0.013623164 -0.048069604 -0.034289032 0.085817695 -0.09812317 -0.050637946
0.08052379 0.026825346 -0.051875267 0.09950388 -0.006750513 -0.066496 -0.05321834 -0.055112373
0.08107723 0.0920106 0.09962308 0.04384137 -0.098421924 -0.0908922 0.014395041 -0.10031193
0.07533792 0.078650035 0.06585559 -0.011019029 -0.019160846 -0.05017592 -0.08373854 -0.026208794
0.022133322 -0.07301313 -0.008886191 0.07872654 0.032429527 -0.01287248 -0.018878566 -0.08529501
0.0629641 -0.05042062 0.016659806 0.04541582 0.034310192 -0.006091773 0.05881342 -0.057866417
0.017351916 0.052590005 0.04525564 0.0074509224 0.01849624 -0.07913504 0.050629467 0.09599606
-0.06603817 0.053800687 -0.03147038 0.0632079 0.045632895 0.08389543 -0.030104058 -0.05368491
0.04498051 0.02441301 -0.115881145 0.027513804 -0.005319677 0.030704122 0.056387648 0.036309797
-0.013096236 -0.060030993 0.014380971 -0.1387621 -0.038765687 -0.07899082 -0.027444515 -0.06991474
-0.07709441 0.03497598 0.026609348 -0.009624143 0.026691455 -0.004781789 -0.020659486 -0.03252737
-0.04537141 0.10154709 0.0017091986 0.015152743 0.047529798 0.0728795 0.036608554 -0.025088046
0.04742647 0.008148615 -0.06904405 -0.032981146 -0.03260757 0.102087036 0.08458476 -0.07909224
-0.05891402 -0.062612645 -0.075867645 -0.03897655 0.03898547 0.080758125 0.00471033 0.08813118
-0.014725221 0.10850877 0.016800297 0.033509783 0.07213203 0.059911154 0.040094055 0.068516776
0.048301954 -0.08366515 -0.11089597 0.068283625 0.020415567 -0.059600536 -0.027042916 -0.06497201
0.05205044 0.087868206 0.12744328 -0.059948888 0.06728285 -0.012934095 -0.0270469 -0.06654145
0.044324383 -0.053118452 0.07130889 -0.09224005 0.026110886 -0.07172264 0.03203953 0.089154914
-0.058289465 -0.0507137 -0.030056804 0.032748483 -0.07213641 0.08024709 0.03928642 -0.018607667
00000000: c49d a73d 6102 4cbd 5542 51bd b2b2 703d
00000010: 453b 8d3d 6abc b9bc 980f 983d 663c cabd
00000020: 9074 b23c 94fd 22bd 2912 8fbd f5e9 56bd
00000030: df0e a8bd 03d1 863d 00a2 79bc eba4 443b
00000040: 1bbc 323d 148b 763d 8825 15bd af11 e33c
00000050: b739 923d a5be 8dbd 0bda 7bbd 99f4 693d
00000060: c4cf a9bd 938b 0c3d c9f6 a8bc 2ed8 10bd
00000070: 17fd 4f3d 5fc3 c6bd 699a 153d a0e8 35bb
00000080: e62b 923d 5f91 5fbd 1627 553d 3402 813d
00000090: 723c 5e3d 16d4 983d f57c d03a 01c2 b53b
000000a0: cdf1 123d db64 4ebd 8b19 a7bb 4284 50bd
000000b0: dd38 9d3d 4ef9 a5bd b446 513d 7cd7 88bc
000000c0: 78a5 a0bd 9791 823d 2bfb 86bc bf76 cb3b
000000d0: 04f7 6a3d 62c8 3abd 74ad 053d 2337 1abc
000000e0: f84e b5bd 7ad4 40bd 6450 9ebd 5dc8 90bd
000000f0: b09a 51bc c03a aabd cb3e 8f3d 1295 883d
00000100: d525 b93d 0ac7 2fbd 663a c53d 17b4 293c
00000110: bc21 953c 4839 71bd 2efa 943d 788a b2bd
00000120: affb 9f3d 51e6 323d f6d2 dcbb 77e6 45bc
00000130: 613d 28bd 495d 9dbd 267f 19bd ccf8 54bd
00000140: e104 5e3d 683e a43d 3354 303d e51c a4bb
00000150: 9823 75bd 3b25 a8bd 90ce 8fbd b498 503d
00000160: 1724 563d ef06 113d 8ba2 3cbd 5aa9 253d
00000170: 741b d53d c019 9fbd 2843 cb3d b388 94bd
00000180: eb99 a43d 6567 0cbd 7af0 8b3c c0d2 e9bb
00000190: 8e53 883d 8d96 8b3c 94b4 1abc 07c2 373d
000001a0: f947 17bc dd1f 2bbb b133 5f3c a2e4 44bd
000001b0: a872 0cbd 30c1 af3d cdf4 c8bd bc69 4fbd
000001c0: a8e9 a43d d4c0 db3c 297b 54bd b1c8 cb3d
000001d0: 6833 ddbb 0e2f 88bd 79fb 59bd 83bd 61bd
000001e0: d20b a63d 0e70 bc3d 2f07 cc3d 0293 333d
000001f0: 6f91 c9bd b125 babd 2ed9 6b3c 5770 cdbd
00000200: c44a 9a3d 4513 a13d 4cdf 863d 2889 34bc
00000210: 35f7 9cbc 4485 4dbd 1d7f abbd d3b3 d6bc
00000220: f150 b53c e887 95bd 6397 11bc 613b a13d
00000230: d3d4 043d 18e7 52bc 39a7 9abc 26af aebd
00000240: 52f3 803d da85 4ebd 257a 883c f005 3a3d
00000250: d888 0c3d 7f9d c7bb 57e6 703d 5605 6dbd
00000260: 9b25 8e3c 9e68 573d fa5d 393d de26 f43b
00000270: 6d85 973c 8d11 a2bd d860 4f3d 9599 c43d
00000280: 053f 87bd 1c5e 5c3d 16e7 00bd 2573 813d
00000290: 8fe9 3a3d 5ed1 ab3d c99c f6bc b5e4 5bbd
000002a0: 7c3d 383d cbfd c73c 1853 edbd a164 e13c
000002b0: af50 aebb 3687 fb3c bcf6 663d 95b9 143d
000002c0: 9891 56bc 0fe3 75bd 2a9e 6b3c a717 0ebe
000002d0: c5c8 1ebd f0c5 a1bd 52d3 e0bc 762f 8fbd
000002e0: ade3 9dbd f942 0f3d d9fb d93c 95ae 1dbc
000002f0: 0aa8 da3c 8eb0 9cbb 153e a9bc 6b3b 05bd
00000300: 5fd7 39bd ecf7 cf3d 3007 e03a 3643 783c
00000310: 9bae 423d d941 953d daf2 153d 7285 cdbc
00000320: 4242 423d c581 053c f866 8dbd 3d17 07bd
00000330: 848f 05bd 0213 d13d c63a ad3d 1dfb a1bd
00000340: d44f 71bd 0f3b 80bd 7f60 9bbd e0a5 1fbd
00000350: 3aaf 1f3d 8464 a53d 1d59 9a3b 1f7e b43d
00000360: 0e42 71bc d939 de3d c7a0 893c 8e41 093d
00000370: f5b9 933d 6665 753d aa39 243d 8652 8c3d
00000380: 45d8 453d a258 abbd 6d1d e3bd 49d8 8b3d
00000390: 8c3e a73c b11f 74bd 1b89 ddbc 0c10 85bd
000003a0: d832 553d 3ff4 b33d 7e80 023e f78c 75bd
000003b0: 97cb 893d 87e9 53bc 7691 ddbc e246 88bd
000003c0: 7c8d 353d bc92 59bd 650a 923d 5ae8 bcbd
000003d0: 7fe6 d53c 52e3 92bd e23b 033d da96 b63d
000003e0: efc0 6ebd 2bb9 4fbd b039 f6bc 4623 063d
000003f0: 41bc 93bd 9658 a43d ccea 203d 1b6f 98bc

fc1.bias f4 [84]
-0.07721374 -0.031642478 -0.0031145944 0.07097049 -0.023786973 0.03526796 0.060863357 0.00941081
0.017628687 -0.035908338 0.052796558 0.053629145 -0.0050659426 0.08646082 -0.019352986 0.023673391
-0.07521213 0.026388356 -0.058226578 -0.021661578 -0.027125625 0.086251944 -0.056323156 -0.074526906
-0.08194407 0.08254708 0.04098494 -0.03859922 0.0199303 0.044697266 0.03532957 -0.038263716
-0.072381034 0.08777404 -0.074389055 -0.065693155 0.033289034 -0.04575028 0.09914485 0.057225652
-0.060344066 -0.029720595 0.055573337 0.050355762 0.066282324 -0.08556917 0.057606213 0.080678605
0.08015127 -0.05320191 -0.07454886 -0.061372034 -0.0057355193 -0.055865925 0.018011434 -0.06702841
0.004150254 0.05905111 0.073810585 -0.068479486 -0.04969506 -0.070676625 -0.02474974 -0.044054743
-0.026649266 -0.08252357 -0.060036436 -0.054174982 -0.08477645 -0.0068297605 0.034461875 0.038910806
-0.03292126 -0.067455046 -0.02603907 0.07673196 0.092123024 -0.028601522 -0.08769837 0.08771503
0.037240982 0.072336614 -0.0069710417 -0.015623217
00000000: 3d22 9ebd 8b9b 01bd 391e 4cbb fa58 913d
00000010: e6dc c2bc 2375 103d db4b 793d cc2f 1a3c
00000020: 096a 903c 9f14 13bd 3441 583d 3caa 5b3d
00000030: 3500 a6bb 5f12 b13d 278a 9ebc b3ee c13c
00000040: d108 9abd 652c d83c fe7e 6ebd 9f73 b1bc
00000050: 8f36 debc dca4 b03d 1cb3 66bd 90a1 98bd
00000060: 4bd2 a7bd 720e a93d d3df 273d 371a 1ebd
00000070: de44 a33c 7b14 373d bdb5 103d 6aba 1cbd
00000080: 823c 94bd e0c2 b33d 4a59 98bd 228a 86bd
00000090: 155a 083d a564 3bbd 750c cb3d 7265 6a3d
000000a0: 572b 77bd 9b78 f3bc dea0 633d d841 4e3d
000000b0: 07bf 873d e43e afbd 7ef4 6b3d d33a a53d
000000c0: 5926 a43d 3fea 59bd 13ad 98bd 3e61 7bbd
000000d0: 06f1 bbbb abd3 64bd b78c 933c 3146 89bd
000000e0: dbfe 873b 94df 713d 012a 973d f93e 8cbd
000000f0: 0c8d 4bbd e8be 90bd f7bf cabc bf72 34bd
00000100: 904f dabc 1e02 a9bd c4e8 75bd 96e6 5dbd
00000110: 479f adbd 2fcc dfbb e527 0d3d f060 1f3d
00000120: 71d8 06bd df25 8abd e34f d5bc a525 9d3d
00000130: ffaa bc3d bd4d eabc 349b b3bd f0a3 b33d
00000140: 008a 183d 3825 943d 566d e4bb 86f8 7fbc

fc2.weight f4 [12, 84]
-0.038684417 -0.085743815 -0.078267574 0.10948566 -0.05376054 0.06639128 -0.014595733 -0.03288317
-0.04739814 0.063412085 0.076727055 0.0039488105 -0.11886797 -0.07565426 -0.14803654 -0.10898904
-0.23419598 0.02671354 0.088727236 0.093932435 0.046772603 -0.01756284 -0.027515583 0.011043612
0.00432157 -0.090543024 -0.029395103 -0.020086205 0.047301866 -0.069577836 -0.13540854 -0.10446339
-0.07441185 -0.11486813 0.020240538 0.092340104 0.06294544 0.06586572 -0.16278252 -0.15945381
0.05571039 0.031776864 -0.017240096 -0.07883389 0.12507755 0.17085324 0.03866324 -0.027044112
0.06848031 -0.00032325392 -0.0317773 0.035014443 0.017631933 0.046005677 -0.05731392 -0.09971587
0.041331246 -0.05139295 0.010707544 -0.13704826 0.14944237 -0.02981811 0.09719206 0.015911704
0.07713721 -0.015425822 0.120892495 0.16930294 -0.08109909 0.085640095 -0.17075844 0.05741718
-0.1442448 -0.041633125 0.14861055 -0.16961762 -0.16091572 -0.010455431 0.047552954 0.014392131
0.035905514 0.021954091 0.06012076 0.17036636 0.014328271 0.20063333 -0.09948874 -0.13384472
-0.06324298 -0.15045826 -0.10985114 0.12923905 -0.031426374 -0.024079999 -0.025007335 -0.013008082
-0.11289061 0.023729281 0.1874723 0.21208349 0.06638772 -0.06325328 0.10307429 0.04857348
0.08438491 0.019186627 -0.0051748976 0.0017527774 -0.16496342 -0.08137729 0.15142176 -0.08225482
0.08426192 -0.011036509 -0.020084955 -0.025164751 0.04435023 0.07755977 0.01854907 0.058656
-0.21409059 -0.006769442 0.10838777 0.004874244 0.07641523 -0.11824177 0.13529754 0.055987254
-0.2372286 -0.18779466 0.10692605 -0.083478205 -0.06489858 -0.07471095 -0.003023657 0.1072786
-0.08951256 -0.07743026 0.011220091 0.13990125 0.07418026 -0.10265036 0.036940593 0.11205582
-0.079628125 -0.017697109 0.06935665 0.013815561 -0.061937004 -0.1554091 -0.0293012 -0.0029568768
-0.011041558 -0.020118985 0.04041045 -0.14171983 0.14157991 -0.106012784 0.02381094 0.07843867
-0.00067006046 -0.09050274 0.063602544 0.13510193 0.048586503 0.1663665 0.1278948 -0.074054435
0.02480945 0.0046856683 -0.08332035 0.051236697 0.15666297 0.1664673 -0.21860652 0.0040016267
0.087062225 0.0059363036 -0.07827575 -0.07748976 -0.05134671 -0.12766421 0.041963026 0.0276984
0.055497568 0.073449634 -0.10338297 0.032235797 -0.019946696 0.11736366 -0.055202365 0.08852641
-0.042526 0.10702696 -0.0055671916 0.056970607 -0.11216289 0.063705236 0.028395612 -0.106262855
-0.026601082 0.08382944 -0.021189272 0.08020333 -0.054664575 0.17174579 -0.09655991 0.07401077
-0.10446577 -0.028210798 -0.03753231 2.30611e-05 -0.040067386 0.095757134 0.046215646 0.122790545
0.004765499 -0.017744843 -0.10469564 -0.020138985 0.005913895 -0.043849275 -0.04349442 -0.07905393
0.10590574 -0.15288693 -0.02622153 -0.2065694 -0.07660711 -0.002881078 0.0024145183 0.039348498
-0.012396891 0.2172708 0.099802054 -0.13589492 0.0816118 -0.034433432 0.118535474 0.10512454
-0.14553626 -0.024377158 -0.21753596 0.14483348 0.15721746 0.09144001 -0.06776519 -0.1499145
-0.18594639 0.116970405 -0.065511465 -0.08056712 -0.025250183 -0.048171222 -0.08755297 -0.20473811
00000000: 8d73 1ebd 749a afbd c04a a0bd 053a e03d
00000010: 0334 5cbd 27f8 873d f122 6fbc 81b0 06bd
00000020: 8d24 42bd 32de 813d 1323 9d3d 0665 813b
00000030: 0d71 f3bd 9ff0 9abd e496 17be a535 dfbd
00000040: 12d1 6fbe 5bd6 da3c a0b6 b53d a65f c03d
00000050: a194 3f3d f2df 8fbc 5c68 e1bc 44f0 343c
00000060: f59b 8d3b 9f6e b9bd 00ce f0bc d38b a4bc
00000070: 9abf 413d d37e 8ebd 89a8 0abe e7f0 d5bd
00000080: 3d65 98bd fb3f ebbd 7ccf a53c cf1c bd3d
00000090: 8ae9 803d 9be4 863d 76b0 26be dc47 23be
000000a0: 9430 643d 7528 023d 1a3b 8dbc aa73 a1bd
000000b0: 5414 003e 27f4 2e3e 585d 1e3d 9d8b ddbc
000000c0: 683f 8c3d 687a a9b9 ea28 02bd 4e6b 0f3d
000000d0: d870 903c 7370 3c3d 00c2 6abd d637 ccbd
000000e0: f44a 293d 6a81 52bd b26e 2f3c 6156 0cbe
000000f0: 6c07 193e 1c45 f4bc a10c c73d 4359 823c
00000100: 1dfa 9d3d 96bc 7cbc 7c96 f73d c05d 2d3e
00000110: 4817 a6bd 1364 af3d 4ddb 2ebe 472e 6b3d
00000120: e9b4 13be 7f87 2abd 5d2d 183e 3eb0 2dbe
00000130: 17c7 24be 424d 2bbc e3c6 423d f9cc 6b3c
00000140: a911 133d 11d9 b33c 3041 763d 8574 2e3e
00000150: 20c1 6a3c d372 4d3e c1c0 cbbd 970e 09be
00000160: 8985 81bd bb11 1abe a2f9 e0bd 3e57 043e
00000170: f1b8 00bd 6b43 c5bc 2fdc ccbc da1f 55bc
00000180: 3133 e7bd e963 c23c bdf8 3f3e 6a2c 593e
00000190: 49f6 873d f08a 81bd 9d18 d33d fcf4 463d
000001a0: ffd1 ac3d 462d 9d3c 3092 a9bb 73bd e53a
000001b0: 2cec 28be 23a9 a6bd 4e0e 1b3e 3775 a8bd
000001c0: 8391 ac3d 79d2 34bc 3489 a4bc 4f26 cebc
000001d0: 96a8 353d a8d7 9e3d 38f4 973c 4641 703d
000001e0: 903a 5bbe 32d2 ddbb 68fa dd3d 1fb8 9f3b
000001f0: 977f 9c3d be28 f2bd 708b 0a3e e452 653d
00000200: 0eec 72be 3e4d 40be 0bfc da3d 9ff6 aabd
00000210: 8ce9 84bd 0e02 99bd 8c28 46bb e2b4 db3d
00000220: 5c52 b7bd c293 9ebd 79d4 373c 4642 0f3e
00000230: d2eb 973d 5a3a d2bd 054f 173d 867d e53d
00000240: 1214 a3bd 87f9 90bc dc0a 8e3d aa5a 623c
00000250: a8b1 7dbd 9023 1fbe 1209 f0bc 29c8 41bb
00000260: a7e7 34bc 92d0 a4bc 6e85 253d 011f 11be
00000270: 53fa 103e 3b1d d9bd 290f c33c 74a4 a03d
00000280: ffa6 2fba 8059 b9bd 0d42 823d 2958 0a3e
00000290: a402 473d fb5b 2a3e dbf6 023e daa9 97bd
000002a0: 303d cb3c 3c8a 993b dca3 aabd 92dd 513d
000002b0: 426c 203e 6776 2a3e 63da 5fbe 1420 833b
000002c0: ae4d b23d 5385 c23b 094f a0bd f4b2 9ebd
000002d0: ee50 52bd 68ba 02be 6ce1 2b3d c1e7 e23c
000002e0: 6b51 633d c36c 963d 73ba d3bd af09 043d
000002f0: 4167 a3bc 5c5c f03d e01b 62bd 564d b53d
00000300: be2f 2ebd f330 db3d fd6c b6bb 035a 693d
00000310: a8b5 e5bd e477 823d ea9d e83c 57a0 d9bd
00000320: 83ea d9bc c5ae ab3d 2095 adbc a541 a43d
00000330: f6e7 5fbd 21de 2f3e 34c1 c5bd f592 973d
00000340: 26f2 d5bd 551a e7bc 7bbb 19bd 5673 c137
00000350: b31d 24bd 511c c43d 9e4c 3d3d 9c79 fb3d
00000360: e727 9c3b a25d 91bc ab6a d6bd 83fa a4bc
00000370: 59c9 c13b 4c9b 33bd 3427 32bd 07e7 a1bd
00000380: 1ce5 d83d 648e 1cbe 89ce d6bc ee86 53be
00000390: 30e4 9cbd 78d0 3cbb e53c 1e3b e42b 213d
000003a0: 541c 4bbc 3d7c 5e3e 0565 cc3d 0a28 0bbe
000003b0: 1624 a73d 120a 0dbd bac2 f23d 894b d73d
000003c0: 7507 15be 9bb2 c7bc bfc1 5ebe 3a4f 143e
000003d0: 9dfd 203e e644 bb3d 7ac8 8abd 3083 19be
000003e0: bb68 3ebe 2e8e ef3d e02a 86bd 6000 a5bd
000003f0: 79d9 cebc 304f 45bd f94e b3bd dea6 51be

fc2.bias f4 [12]
-0.03416064 0.049016032 -0.031702057 0.029879948 0.09934018 0.05271749 0.052149434 0.1522665
-0.09470906 0.114448905 0.0315328 -0.12398437
00000000: 07ec 0bbd 09c5 483d 04da 01bd cbc6 f43c
00000010: dd72 cb3d 4bee 573d a59a 553d c0eb 1b3e
00000020: d3f6 c1bd 3064 ea3d 8a28 013d 84eb fdbd
